data.pth (torch, 5207 bytes, 6 tensors)

l1.weight f4 [8, 58]
0.48791093 0.2581352 0.2978051 0.16728684 -0.2701586 -0.40149406 0.33948696 0.23795202
0.0004162271 0.18472296 0.46801683 0.4802498 -0.21804045 0.28289288 0.36574188 -0.10180538
0.26216796 -0.29342446 -0.083238825 -0.49111155 0.33985844 -0.49068618 -0.4443498 -0.4211194
0.44362903 0.458315 0.39097393 0.42315298 -0.3788312 0.325443 0.78352326 0.2989232
0.5956124 0.028620275 0.35977995 -0.10491629 1.0183324 0.23567185 0.13218692 0.37783974
-0.40579212 -0.25408292 0.18043613 -0.13743787 0.29728714 0.39102945 0.7005512 0.42300197
0.020242888 -0.42730793 0.4259565 0.7476359 0.6239849 0.2128462 0.49892974 0.4993155
0.38467106 0.39905745 -0.31272385 0.21450856 0.009844688 0.1954423 0.15157707 0.11912251
0.24033889 0.15262742 0.8358163 -0.060231704 0.4030046 0.16050085 -0.13230924 -0.09803888
0.0013568319 0.7299654 0.16094294 -0.04816089 0.7896688 -0.041799612 -0.09959478 -0.017307926
0.24390635 0.2724425 0.2852603 0.080356576 0.5365447 0.07320276 0.35243443 -0.104605615
0.34413645 0.088349804 0.4103846 -0.2717489 -0.23717366 0.093826875 0.33517563 0.31613854
0.14398865 0.32579765 0.2350328 -0.006670292 -0.0516459 0.37517744 -0.12515242 0.44519687
-0.66211927 -0.26143217 -0.094117224 0.013462661 -0.2394852 0.04238023 0.01664068 -0.11436239
-0.43891054 -0.13824618 -0.43762803 -0.011639098 0.23991449 0.15029153 0.14032036 0.24086653
-0.34520045 -0.21226174 0.3508866 0.24302998 -0.46856925 0.10323242 0.23187551 0.4663722
-0.28019223 0.40342468 0.14985476 -0.4444708 0.2556422 -0.22100429 -0.38213113 -0.50118667
0.38222837 -0.50089586 -0.47162762 -0.1283133 0.76388067 0.23541062 0.2258639 0.30159166
-0.2501577 0.28608298 0.74130315 0.08667858 0.21926056 0.029652286 0.09805481 0.82441056
0.8381293 0.23954117 0.2354028 0.2544413 0.6153491 0.7301059 -0.07923084 -0.20147777
-0.084072135 0.2873779 0.70439374 0.25570852 0.3499814 -0.29848856 0.09127465 0.6246958
0.7136195 0.14933282 0.31323856 0.07415926 0.7175425 0.046929214 0.79548156 -0.087861985
0.64442015 -0.10300564 0.53510153 0.24280994 -0.03811252 0.05653711 -0.47212332 0.010822593
-0.10739983 0.0081476765 0.26091632 -0.2043348 0.047764827 -0.55217487 -0.006776191 0.25547153
-0.49578494 0.5587234 0.6871492 0.6128976 0.6789696 0.22119193 -0.3003871 -0.07831879
0.21978967 0.04434465 -0.3435666 0.5057641 -0.2597355 -0.008731946 -0.16580029 0.29465207
-0.018792026 -0.3553046 -0.4629083 -0.029700123 0.053065524 -0.035665166 -0.38510424 -0.3133624
0.24839789 -0.4216173 0.19261847 -0.16569614 1.1735662 0.58356464 -0.21447855 0.5170154
0.1439607 -0.05029834 0.012312624 0.0900503 -0.043459896 0.12507176 0.020210281 0.3502703
-0.09751444 0.029001463 0.0110605955 0.14344247 -0.30598462 -0.33481959 0.39944348 0.12482365
0.48756438 0.37238738 0.20393713 -0.10272454 0.079971045 0.6800889 0.5473564 0.64092565
0.30120283 0.0031207534 0.58733577 -0.18480785 -0.26408094 -0.19514987 -0.2695393 -0.25336516
00000000: 76cf f93e 4c2a 843e e979 983e 3e4d 2b3e
00000010: 3a52 8abe a190 cdbe 3cd1 ad3e b2a9 733e
00000020: 0e39 da39 0428 3d3e e79f ef3e 4de3 f53e
00000030: ff45 5fbe 56d7 903e 8542 bb3e 577f d0bd
00000040: e13a 863e bb3b 96be 1e79 aabd f972 fbbe
00000050: ed01 ae3e 383b fbbe d181 e3be f69c d7be
00000060: 5823 e33e 44a8 ea3e bc2d c83e 82a7 d83e
00000070: 2af6 c1be 77a0 a63e fb94 483f 760c 993e
00000080: 0e7a 183f 1175 ea3c 1435 b83e 5ade d6bd
00000090: b758 823f f653 713e 025c 073e 3674 c13e
000000a0: fcc3 cfbe 2817 82be 40c4 383e 83bc 0cbe
000000b0: 0536 983e 0335 c83e 5357 333f b793 d83e
000000c0: 6ad4 a53c 1bc8 dabe f816 da3e 1165 3f3f
000000d0: 79bd 1f3f 5bf4 593e b873 ff3e 48a6 ff3e
000000e0: 9bf3 c43e 4251 cc3e 571d a0be 22a8 5b3e
000000f0: 9d4b 213c 0722 483e 0537 1b3e 81f6 f33d
00000100: 661b 763e 5d4a 1c3e 0ff8 553f 85b5 76bd
00000110: 9e56 ce3e 565a 243e 137c 07be 9cc8 c8bd
00000120: b9d7 b13a 03df 3a3f 3ace 243e 5a44 45bd
00000130: bc27 4a3f 1236 2bbd 59f8 cbbd 5ac9 8dbc
00000140: 96c2 793e 957d 8b3e a30d 923e fd91 a43d
00000150: fe5a 093f 54eb 953d 4972 b43e 783b d6bd
00000160: a732 b03e bef0 b43d ee1d d23e ac22 8bbe
00000170: a7dd 72be 4e28 c03d 249c ab3e e9dc a13e
00000180: c371 133e f3ce a63e 70ac 703e 7792 dabb
00000190: a78a 53bd 4217 c03e f527 00be d8f0 e33e
000001a0: a680 29bf 70da 85be 88c0 c0bd 7e92 5c3c
000001b0: 9c3b 75be e496 2d3d 0952 883c d436 eabd
000001c0: e2b8 e0be 6890 0dbe c810 e0be eab1 3ebc
000001d0: 25ac 753e 06e6 193e 24b0 0f3e b7a5 763e
000001e0: 1dbe b0be 245b 59be 69a7 b33e dadc 783e
000001f0: 4fe8 efbe 856b d33d c670 6d3e 56c8 ee3e
00000200: 5b75 8fbe ae8d ce3e 8773 193e ad91 e3be
00000210: 89e3 823e f34e 62be b1a6 c3be c54d 00bf
00000220: 70b3 c33e b63a 00bf 2d79 f1be 9064 03be
00000230: af8d 433f 7b0f 713e de48 673e 396a 9a3e
00000240: ac14 80be 7879 923e 0bc6 3d3f 8a84 b13d
00000250: d785 603e 5ae9 f23c f6d0 c83d 920c 533f
00000260: a48f 563f 484a 753e 6e0d 713e 2146 823e
00000270: 8587 1d3f 38e8 3a3f c743 a2bd 3050 4ebe
00000280: 032e acbd 3223 933e 2653 343f 3aec 823e
00000290: c330 b33e 7ed3 98be 34ee ba3d 10ec 1f3f
000002a0: c4af 363f b4ea 183e ce60 a03e cfe0 973d
000002b0: deb0 373f d938 403d aea4 4b3f fcf0 b3bd
000002c0: b8f8 243f 9ff4 d2bd 6afc 083f 2ba3 783e
000002d0: e01b 1cbd 7593 673d 26ba f1be 3f51 313c
000002e0: 71f4 dbbd d57d 053c d396 853e 243d 51be
000002f0: 0da5 433d 555b 0dbf cf0a debb 2acd 823e
00000300: 86d7 fdbe 7f08 0f3f 03e9 2f3f dbe6 1c3f
00000310: f4d0 2d3f 2380 623e 57cc 99be 9a65 a0bd
00000320: 8b10 613e bca2 353d f6e7 afbe c279 013f
00000330: 0dfc 84be 7010 0fbc 8dc7 29be a3dc 963e
00000340: bcf1 99bc 7cea b5be 5102 edbe ac4d f3bc
00000350: 3c5b 593d a315 12bd 622c c5be 0971 a0be
00000360: 045c 7e3e 39de d7be c73d 453e 40ac 29be
00000370: 6b37 963f 7e64 153f 44a0 5bbe 1f5b 043f
00000380: 6f6a 133e a205 4ebd e3ba 493c 4b6c b83d
00000390: 0103 32bd d012 003e 0890 a53c a156 b33e
000003a0: a7b5 c7bd 7a94 ed3c 8037 353c 95e2 123e
000003b0: 04aa 9cbe 796d abbe db83 cc3e 8ba3 ff3d
000003c0: 0aa2 f93e 8fa9 be3e e5d4 503e 3e61 d2bd
000003d0: dcc7 a33d 4e1a 2e3f 8d1f 0c3f b413 243f
000003e0: 4237 9a3e 8e85 4c3b a35b 163f 453e 3dbe
000003f0: 9e35 87be 5ed5 47be 0e01 8abe 14b9 81be

l1.bias f4 [8]
0.5153709 0.6737318 0.5012262 0.668587 0.7527622 0.6990231 0.6348289 0.76495856
00000000: 59ef 033f b079 2c3f 5c50 003f 8528 2b3f
00000010: 06b5 403f 2ef3 323f 2684 223f 53d4 433f

l2.weight f4 [8, 8]
0.016842037 -0.58321685 0.589363 -0.79948956 -0.32753733 1.1318694 1.0931183 0.9072871
-0.5831356 0.62164044 -0.68918484 -0.05315925 1.2442256 0.9486926 0.40379268 0.50830775
-1.1692051 0.9814752 -1.3785084 1.1714652 1.011996 0.25757188 0.2468094 0.15001084
0.69099736 0.48736638 0.9060593 -0.7662197 0.78110635 0.61415124 0.1730031 -0.29923162
1.2359827 1.1168594 0.35893506 -0.676789 0.52388346 -0.9309804 0.5219821 -0.56652653
0.84449154 1.0311661 0.9133801 -1.1656766 0.6980631 0.10071471 0.36554527 -0.15687317
0.09582719 -0.1680139 0.45114687 1.5402665 -0.99519736 0.70799494 1.1766281 1.2130262
1.4360564 -0.8380518 0.71654445 1.2449914 0.71308494 0.33100003 -0.81805414 0.029846232
00000000: 50f8 893c b34d 15bf 7ee0 163f 59ab 4cbf
00000010: f9b2 a7be 19e1 903f 4deb 8b3f f843 683f
00000020: 6048 15bf d423 1f3f 6b6e 30bf 84bd 59bd
00000030: c942 9f3f 85dd 723f eabd ce3e 7520 023f
00000040: 83a8 95bf f541 7b3f f772 b0bf 92f2 953f
00000050: 1689 813f 76e0 833e 9abb 7c3e 719c 193e
00000060: 34e5 303f 1688 f93e 81f3 673f f926 44bf
00000070: 96f6 473f 0439 1d3f ba27 313e e334 99be
00000080: ae34 9e3f 40f5 8e3f 56c6 b73e 0b42 2dbf
00000090: 3a1d 063f bb54 6ebf 9ea0 053f e207 11bf
000000a0: 9930 583f 40fd 833f 47d3 693f e434 95bf
000000b0: 43b4 323f 8443 ce3d c028 bb3e 5ca3 20be
000000c0: 0c41 c43d d60b 2cbe b9fc e63e 7427 c53f
000000d0: 41c5 7ebf 283f 353f c09b 963f 7144 9b3f
000000e0: b2d0 b73f 908a 56bf 756f 373f e15b 9f3f
000000f0: bc8c 363f d678 a93e ff6b 51bf 1680 f43c

l2.bias f4 [8]
0.2805339 0.538859 0.51308376 -0.3500219 0.14913103 0.10009351 0.43832904 -0.09524185
00000000: 24a2 8f3e aaf2 093f 7559 033f 1236 b3be
00000010: ceb5 183e d3fd cc3d aa6c e03e 290e c3bd

l3.weight f4 [7, 8]
-0.74206704 0.8769427 0.86123717 -0.022998061 0.46589148 0.43630219 -1.3295387 -1.3585088
0.06052822 0.61347735 1.2133505 -1.2826631 -1.2150676 -1.3744841 0.41698125 -0.9229069
-1.1613622 -1.0120469 -1.7601832 0.36950773 0.79066324 0.56566864 -1.4975761 0.07051461
0.3605578 -1.3467577 -2.5486693 0.09292495 0.26588362 0.3251473 -0.11433197 -0.3250143
0.7608899 -0.048628706 -1.5356462 -0.04624976 -1.5292773 0.014896488 0.2547025 -1.2267165
0.11283246 -1.0305951 -1.4703386 -0.9174753 -1.080776 -1.106409 0.7028564 0.7464725
0.14651555 0.46223107 -0.899697 0.2543553 -0.95806986 -0.2487896 -0.8207857 0.71462077
00000000: 1bf8 3dbf 517f 603f 0a7a 5c3f 6e66 bcbc
00000010: 5489 ee3e 0063 df3e 532e aabf 9ee3 adbf
00000020: 70ec 773d da0c 1d3f 124f 9b3f 4e2e a4bf
00000030: 5687 9bbf 18ef afbf 917e d53e a043 6cbf
00000040: 84a7 94bf c18a 81bf af4d e1bf 1e30 bd3e
00000050: e868 4a3f a9cf 103f 93b0 bfbf f769 903d
00000060: 089b b83e 8e62 acbf 661d 23c0 704f be3d
00000070: e621 883e b579 a63e e126 eabd 4668 a6be
00000080: aec9 423f e52e 47bd 0e90 c4bf 6370 3dbd
00000090: 5cbf c3bf 6610 743c 5e68 823e 0c05 9dbf
000000a0: b414 e73d 8aea 83bf 0e34 bcbf a9df 6abf
000000b0: de56 8abf cf9e 8dbf 66ee 333f d218 3f3f
000000c0: 2c08 163e 8da9 ec3e 8b52 66bf dc3a 823e
000000d0: 1144 75bf b3c2 7ebe 031f 52bf 63f1 363f

l3.bias f4 [7]
0.38171944 0.13138391 0.092836626 -0.30069396 -0.100443214 0.4504524 -0.37442437
00000000: bb70 c33e 8189 063e 2121 be3d 8ff4 99be
00000010: 2cb5 cdbd b2a1 e63e 8db4 bfbe
