data.pth (torch, 4439 bytes, 6 tensors)

l1.weight f4 [8, 41]
00000000: c9f5 323f 7cb9 f43e 3359 2a3f db5e 263f
00000010: b98e 023f ea82 b3be 6b0f 5b3e 5d5d 203f
00000020: 3d60 f3be b8bf 08be 2ea9 013f 097b 2f3e
00000030: cd53 ca3e 5e91 fe3e 939d 2f3f b8a1 143f
00000040: a6ac 353f 4766 303f 1de4 b13e e147 36be
00000050: 9556 aa3e 6724 dabe 94f3 303e 8139 093f
00000060: 213e cbbe 0d72 d1bd dab5 443e ac9e ce3e
00000070: 5a2e a2be cbc0 153d d5ce a3be 1439 ab3f
00000080: e3ef 113f 47ef 783e e1d5 383f acb9 8abe
00000090: 82b0 d63e 9a7f 8abe bf4f 02bf 8822 3cbe
000000a0: d419 003f af08 a73d 7d7f 8cbd 0ef8 5fbd
000000b0: 520f e83d 0029 27ba ac11 c93c 8087 01be
000000c0: 9cd9 f23d eaef b73d a83f 413d fc3f cd3d
000000d0: 65de 043e c159 1fbe c2b7 80bd 35d1 eebd
000000e0: 00a5 26bb 5092 443d 20c7 193c 5d54 ffbd
000000f0: 2e18 78bd 7ae4 ab3d 7044 663c c811 de3d
00000100: d2e0 2d3d b396 1ebe d536 0abe bae2 bb3d
00000110: 06ef b73d 7099 5abc ae11 44bd e4f1 ebbd
00000120: 614b 9a3d 2b93 babd 20ef 403d ece2 24bd
00000130: e294 b8bd a58b 543d 9c3c de3d 3835 4ebe
00000140: f8d3 74bd 5cd6 d13c 697d 4cbd 7649 783b
00000150: cb5a 353f e639 0a3f 9878 373f 65b7 473f
00000160: 1a1d 34bf c6bf f93e 33f8 85be 0de1 f33e
00000170: 6358 333f afdb fbbe e134 303f ef70 313f
00000180: d80c 4d3f 4c56 febd 00cd 4d3f 42f8 383f
00000190: 167e f93e 7679 2fbe 6bc1 acbd bbbd 3abe
000001a0: 88af c73e 3772 103e 47e3 ac3e 6e22 f3bc
000001b0: e4ba b1be 911c 34bf ac22 773e 19b9 0a3f
000001c0: bf67 c7be ee91 6abe 5d03 e3ba 2dda 703b
000001d0: ffb7 fa3e 6efa 9a3d f218 ebbe eec0 aebe
000001e0: 0533 d7be b6f4 26bf bba3 333d fbf6 99bb
000001f0: ce03 f5bd ab8c aabe 2f5d bfbe a57c 463f
00000200: 49c7 53bf 558d 0d3f 9679 39be 16b9 303f
00000210: 6d3c afbe d572 443f 965c 2d3f a9d3 b0be
00000220: 44bc 423f 91c8 06bf 2036 06be cdcb 06bf
00000230: 8acc 06bf f934 0ebf cb79 e7bd 42ec c03e
00000240: 6559 b5bd ec22 463e e733 84be f4be 8f3e
00000250: f67e de3e 1296 143f 288b 2e3f 76dc 693e
00000260: ba3e af3d 25aa d73e 2330 59be 0ed1 57be
00000270: a4f1 1e3e ff1c d0be ee12 b73e 0585 c93e
00000280: e8e0 273f ec00 373f 1444 2f3f 1bab 2e3f
00000290: b6da 333f 892c 043f 9392 313e ef64 9b3e
000002a0: d615 42bf cc69 94bd 81bb 3d3f 6ace 983e
000002b0: 0c07 0e3f f047 8fbc 3b12 42bf 422f f93e
000002c0: 11fa 553e bd38 41bf e314 f53e 35c4 3b3f
000002d0: c0e6 de3e b07d df3e b28f f03e c8f7 293f
000002e0: 6d36 733f fb95 5d3f f6ac 07bf 3369 f83e
000002f0: d143 6c3e c58d d43e daf2 e53e 034e 383f
00000300: d56d 223e 9caf 21bf f84e f13e b3a0 8f3f
00000310: d983 0e3f a6cd bb3e f7e0 2e3d 51f3 153f
00000320: 46de e53e e0a3 de3e d0b4 3b3f 7ed4 0a3f
00000330: a687 ce3e 1903 c1bd 28f4 f8bc c041 143f
00000340: 8423 973e d89b 27bf 8d61 653f ef66 4abf
00000350: 5bbf 4b3f 4e43 513f 617a 663f 099d 27bf
00000360: 1091 b8be 076d 5c3f 5c93 27bf 57bf 923f
00000370: 59f6 86be 53c9 953f 6db0 843f d8a4 4b3f
00000380: 598c 0f3f 5dfb dabd ad59 af3e fef2 abbe
00000390: ec63 0abe 0bf5 413f a1fb 113f 0daf eabe
000003a0: 384b 2abf a308 223f a902 bebe 7c7f d63e
000003b0: d850 2abf 7e45 98be 5a86 133e 3c54 173f
000003c0: be3c 6a3f 7dd9 f0be c70b 0a3f da58 443f
000003d0: 8f4a 4a3e 8f08 563d 716d 93be 05a5 bbbc
000003e0: 0ab5 d13e 853c 623e 4342 f0be c0eb 7b3f
000003f0: fdab 86bc 14ba b13e fdb0 843f 68a4 393f
0.6990629 0.47797763 0.6654236 0.6498849 0.5099903 -0.35060817 0.213926 0.6264246
-0.4753436 -0.13354385 0.5064877 0.17136778 0.3951706 0.4972028 0.68599814 0.58059263
0.70966566 0.6890606 0.3474435 -0.17800857 0.33269182 -0.42605898 0.17280418 0.5360337
-0.39695838 -0.102268316 0.19209996 0.40355432 -0.31675988 0.036560815 -0.31993738 1.3376794
0.57006663 0.24310027 0.72201353 -0.2709478 0.4193154 -0.27050477 -0.5090293 -0.18372548
0.5003941 0.08155953 -0.06860254 -0.054679923 0.11331047 -0.0006376654 0.02454456 -0.12649345
0.11857912 0.08981307 0.047179848 0.1002197 0.12975462 -0.15561582 -0.06285049 -0.11660997
-0.0025427938 0.047991097 0.009385854 -0.12467263 -0.060569935 0.08393188 0.014054403 0.10843235
0.042450733 -0.15487175 -0.1349748 0.09174104 0.08981137 -0.013342246 -0.047868423 -0.11520746
0.07533909 -0.09110101 0.047103047 -0.040255472 -0.09012772 0.051890988 0.10851404 -0.20137489
-0.05977246 0.02561491 -0.049924288 0.0037885583 0.70841664 0.53994596 0.71668386 0.7801421
-0.70356905 0.48779124 -0.26165923 0.47632638 0.7005674 -0.49191043 0.68830687 0.6931295
0.80097723 -0.124188036 0.8039093 0.7225381 0.48729008 -0.17136177 -0.08435329 -0.18236439
0.39001107 0.1410607 0.3376715 -0.029679503 -0.347129 -0.7035609 0.2413432 0.54188687
-0.3894634 -0.2290723 -0.0017319728 0.0036751137 0.48968503 0.07567297 -0.4591747 -0.3413157
-0.42031112 -0.6521715 0.043857317 -0.004698632 -0.11963616 -0.33310446 -0.3737578 0.7753394
-0.8272596 0.5529378 -0.18112788 0.6903242 -0.3422579 0.7673772 0.677194 -0.34536484
0.7606852 -0.5264979 -0.13106585 -0.52654725 -0.5265585 -0.5554958 -0.11302527 0.3768025
-0.08854941 0.19349259 -0.25820848 0.28075373 0.43456239 0.5804149 0.68181086 0.22838005
0.08556886 0.42121997 -0.21209769 -0.21075842 0.15521866 -0.40647122 0.3575663 0.39359298
0.65577555 0.7148578 0.68463254 0.68229836 0.702556 0.51630455 0.1734107 0.30350444
-0.7581457 -0.07246742 0.74114233 0.2984498 0.554795 -0.017490357 -0.7580907 0.48668867
0.20896174 -0.754772 0.47867498 0.73346263 0.43535423 0.4365058 0.4698463 0.6639371
0.9500492 0.8655698 -0.5299829 0.4851776 0.23072745 0.41514412 0.44911844 0.71994036
0.1586221 -0.63158584 0.4713056 1.1220917 0.55669934 0.36680335 0.042695012 0.58574396
0.44896144 0.43484402 0.7332277 0.5423049 0.40337867 -0.09424419 -0.03038986 0.57912827
0.29519284 -0.65472174 0.89601976 -0.79063314 0.7958886 0.81743324 0.90030485 -0.6547399
-0.36048174 0.8610386 -0.6545923 1.1464642 -0.26359823 1.1702064 1.0366341 0.79548407
0.5607353 -0.10692475 0.34248105 -0.33583826 -0.1351468 0.7576453 0.5702458 -0.45836678
-0.66521025 0.6329443 -0.37111405 0.41894138 -0.6652961 -0.29740518 0.1440672 0.59112906
0.91498935 -0.4704093 0.5392422 0.76698077 0.19755004 0.052254256 -0.28794435 -0.022905836
0.40958434 0.22093399 -0.46925554 0.984066 -0.016439432 0.3471228 1.0366513 0.7251649

l1.bias f4 [8]
00000000: 6b3d ad3f 0ce1 80be 8d30 9a3f 69c8 063f
00000010: e814 423f 139b 273f 7330 f03e 12c5 953e
1.3534368 -0.25171697 1.2046067 0.5264955 0.7581315 0.65471 0.46911964 0.29251915

l2.weight f4 [8, 8]
00000000: 0008 68bc 088f 26bd 8e35 76be 900e 46bd
00000010: 40fb bbbd 5a41 3bbe febf 783e d06b 90bd
00000020: 1a67 c43f 6645 273e fa40 ad3f 7d56 333f
00000030: b2cc 673d 440f 1fbf 5b27 59bf 2385 62bf
00000040: e999 1f3f b911 8b3e abc3 323f 4b30 d2bf
00000050: 5a94 673d fa7a 753f bef6 efbd abbb 92bf
00000060: 43a2 e4be f0c3 0f3d b174 253e f7e4 0f3f
00000070: 348d 923f 9af2 c23f 0578 9c3f 32d7 653e
00000080: 66a7 a9be 547f a0bd 4043 6cbc 5a5f 54be
00000090: 891c b43e 1429 9cbe ea40 1fbe 8c5a 8ebe
000000a0: b65f 683f ffa1 9c3e 3ec3 18bf 325f d3bd
000000b0: 7b06 823f dab8 71bf 5ff1 0ebd 27c7 973f
000000c0: 3f37 113f 7b3f 7bbd 18c3 4a3f b6b2 a9bf
000000d0: 9e24 4b3f 8575 593f 59c8 343e 5c5e 0fbf
000000e0: ab1e 053f 456a 08be 0e5a 64bf dcf1 663f
000000f0: aa60 8f3f b5c7 48be f49a 58be fa52 8e3f
-0.014162064 -0.04066375 -0.24043867 -0.04835373 -0.091787815 -0.18286648 0.24291989 -0.070518136
1.5343964 0.16335067 1.3535454 0.70053846 0.056591697 -0.6213267 -0.84825677 -0.884844
0.62344223 0.2716196 0.69829816 -1.6420988 0.056537963 0.9589077 -0.11716984 -1.1463522
-0.44655046 0.03509897 0.16157795 0.5620875 1.1449342 1.5230286 1.2224127 0.22445372
-0.33135527 -0.07836786 -0.0144203305 -0.20739499 0.3517802 -0.3050009 -0.15552106 -0.27803457
0.90771043 0.30592343 -0.59672916 -0.103208914 1.0158228 -0.94422686 -0.03489816 1.1857651
0.56724924 -0.061339837 0.7920394 -1.3257663 0.7935275 0.84944946 0.17654552 -0.56003356
0.5199992 -0.13321789 -0.8919991 0.902128 1.1201375 -0.19607432 -0.2115286 1.1119072

l2.bias f4 [8]
00000000: 4ed5 4cbe 4475 863f 41fb babe fe27 57be
00000010: ca82 55be 7b11 d6be 9d2e 473e dfb4 e7bd
-0.20003244 1.0504537 -0.36519817 -0.2101135 -0.20850673 -0.41810212 0.19451375 -0.11313795

l3.weight f4 [6, 8]
00000000: a874 1d3d 0835 a0bf 3140 34bf 75a8 073f
00000010: ea49 e3bd 8bce 48bf 426d ee3e f6ef dfbf
00000020: 9c83 e3bd b96f b03f af24 f2be 8ebc 09c0
00000030: 43c5 873e 752f bcbf 12eb c53c 8647 84bf
00000040: 2070 92bc e5d5 583e 2998 853f c58b 00bf
00000050: 18ea bbbd e862 09bf 9ac4 0f3f e0e6 adbf
00000060: ed0e a23e 6f86 85bf 04ea c8bf 4db2 2fbe
00000070: 2845 243d 2cbf 1c3f 98c4 99bf 5ab1 413f
00000080: 3220 603e f8b5 943d d0d1 a8bf a853 8bbf
00000090: b441 6abe e195 4f3f 0fbe 373e d953 dd3e
000000a0: f374 11be 3858 89bf d7aa 29c0 5bef 493f
000000b0: 20c6 82be cb23 a7bf f209 40bf 3daa b13e
0.03844133 -1.2516184 -0.7041045 0.5299142 -0.11098082 -0.7844016 0.46567732 -1.7495105
-0.11109087 1.3784095 -0.47293612 -2.1521335 0.26517686 -1.4701983 0.024159942 -1.0334327
-0.017875731 0.21175344 1.043706 -0.5021327 -0.09175509 -0.53666544 0.56159365 -1.3586082
0.31652012 -1.0431651 -1.5696416 -0.1715786 0.040105015 0.61229205 -1.2013121 0.7566124
0.21887282 0.0726127 -1.318903 -1.0884905 -0.22876626 0.8108807 0.17943595 0.43228033
-0.14204769 -1.0730047 -2.6510522 0.7888085 -0.25541782 -1.3057798 -0.75015175 0.34700194

l3.bias f4 [6]
00000000: 8c35 533d 7d6a 9b3e 75fe ddbe 139a f33d
00000010: c6cc dabd 8afc 673e
0.05156474 0.30354682 -0.43358198 0.11894622 -0.10683589 0.2265493
