data.pth (torch, 5975 bytes, 6 tensors)

l1.weight f4 [8, 73]
00000000: 16a7 8cbe 7d8a 81bd f0ce c83e ccd3 723f
00000010: 8694 eb3e 4d89 b13e 87d7 f53e 1036 933e
00000020: 2bc1 79bf b34d 933e 76ae 85be 019c d63d
00000030: 862a cdbe 8765 cc3e ef36 e13e ee7d 053f
00000040: d64f e8be 17ba 41be 4bc8 b13e e591 01bf
00000050: 2891 c33e 05e7 ee3e a905 513d a957 f3be
00000060: 360a 053f 3abe a0be 5c95 053e ada4 1d3f
00000070: 8826 303f 92fa f43e 5ba2 373e c40d 873e
00000080: 3a67 fe3e f0fc 4abd 1317 8b3e 8366 993e
00000090: 9b03 973e 56f1 21bd 1b7a 6abd c989 843d
000000a0: 4f6c 173f 6a76 babe 3bad 58bd 36f2 d93e
000000b0: 9cc6 dd3e 8055 0a3f fcb5 a4bd 6e0d 0f3f
000000c0: f960 c8be e46d aa3e e391 1bbc 1a00 0cbf
000000d0: 25d2 143f 6021 833e 298a a8be e3db 713e
000000e0: 300f 20be eb9a fc3e 3f3d 18bf 9573 9d3d
000000f0: b09b ac3e e206 963e b17b 15be 56fe 033e
00000100: dca9 893e d72d b03e ae4d 853e 8266 8a3e
00000110: 203f c7bd 94cb 2a3f a177 97be 410c 913e
00000120: 5586 063f 9044 83be 8fc8 49bb c774 f83e
00000130: d5ab 2bbe 0025 edbd 2f21 26be 98fb 7cbd
00000140: 55c1 f3bc 60dc 673f d263 8abd b310 0c3f
00000150: 55b0 3f3f 10b3 2e3f b88b 82be 0f9c 823e
00000160: 7815 1c3f af24 eebe 1494 7dbe 3080 f7bc
00000170: 8232 513f 53ed 0d3f 2bd3 1abe 7ef8 5a3f
00000180: 17b3 943e 22e3 cfbe 4400 a2bd e10e 273f
00000190: 62e9 cfbe 4be6 cfbe f1b4 03be fa09 1e3f
000001a0: 4239 edbd 554d 81bd 79b1 213f 9546 97bc
000001b0: 158f 9e3d 0fcd 0d3c b4c1 123f 99f6 bb3e
000001c0: 5072 5cbd e9b1 91bc 0585 8dbe f04b eabd
000001d0: 653e 723d c080 393f d0c8 8c3e 0fdd c23e
000001e0: 4790 0c3d 39d0 a0be a025 f23e b266 173f
000001f0: 6391 78be d84e c43e 7376 c83d 8b83 c7be
00000200: d15e 063f 05dd 1c3e 3d08 e5bc 1d16 a8be
00000210: e156 90bd 2483 1c3e 73b5 67be 019c 20bd
00000220: ae3b 0c3f 0dc3 b93d e0d0 ec3e f3ac a8bd
00000230: 9bf6 f13e 4cfe c43e 57ee 0c3f 02cb 01be
00000240: 8f24 aabd 4f5a 8e3e d8d2 9abe 5d7c c5bd
00000250: 04d0 5c3e ffe2 a63d b8cf d03e b2f1 e13e
00000260: 4bfc c73e d411 9d3e 292c 2ebf f3f1 9a3e
00000270: fd72 90be ed13 093f 3c9d a1be 6e51 b93e
00000280: a324 02bf e62b 1abf d1d0 d0be 8f7f 87be
00000290: 2cf2 aa3e 2218 0bbf de99 f6be 5ad0 d63e
000002a0: 446a 293f 30c2 c2bd 2428 2b3f 6feb ddbd
000002b0: 97fe 84be e9da 1a3f e763 223f 4873 103e
000002c0: f6a4 373e 66f9 a53c a14f 143f 908f 96be
000002d0: 3194 0b3e fd20 963e 313e 303e 3a06 fc3e
000002e0: 0a78 1fbe fafd 08bd 5e65 853e 2329 90be
000002f0: baad a63c 95bf a33e ce32 f3be 14db 7d3f
00000300: e084 a4bd 0f32 733e f3f3 85be 5bb9 e4be
00000310: 23ba f33e da3d 46be 3004 f93e ca11 9d3e
00000320: 79fa c7be ba66 e6bd e8b8 ca3c 746c 7b3e
00000330: 301e 53bf 7e4f 1cbe 96a4 2a3e b399 d23e
00000340: 9488 94bd 606d 86be 8aa5 b83e 40da 603e
00000350: d244 3c3e 0301 413e 9cff d9be abb8 803e
00000360: dcba d4be 880f 613d eaf7 8b3e cac3 49be
00000370: 57a9 e0bc aa19 f13e a506 f1be e90d 8e3e
00000380: 9be2 393e 7c86 d13e 6af4 cb3d bf1b 0c3f
00000390: 4cef 383e 2ce7 313e 8246 913f 6689 cdbe
000003a0: 5c46 933e ae80 febe 47af b03e cf94 bc3e
000003b0: 0b5e d23e 7bef 273e 40e5 0e3f c97d a13e
000003c0: e827 8c3e c577 953f e350 43be 8e0a a93e
000003d0: ee5b a2be 7553 e7be bcf6 b53e 58f2 c53e
000003e0: c89e 383e eb3d 9abe 6ba2 633c 3d67 863e
000003f0: 019b 6a3e 0759 87bc 0b7f e03e dd87 19be
-0.27471226 -0.06325243 0.3922038 0.94854426 0.46011752 0.34675065 0.48015997 0.28752184
-0.97560376 0.28770217 -0.26109666 0.10478974 -0.40071505 0.3992121 0.43987224 0.5214528
-0.4537341 -0.18918644 0.34723124 -0.5061324 0.38196683 0.4666063 0.05103079 -0.47527817
0.51968706 -0.3139513 0.13045257 0.615794 0.68808794 0.4784742 0.17933027 0.2637769
0.4968813 -0.049557626 0.27166042 0.29961023 0.29494938 -0.039536797 -0.057245355 0.06471593
0.5914964 -0.36418468 -0.05289958 0.42567605 0.4331559 0.5403671 -0.08042523 0.5587987
-0.39136484 0.33286965 -0.009495231 -0.54687655 0.58133155 0.256114 -0.32917908 0.23619036
-0.15630794 0.49336943 -0.59468454 0.07688061 0.3371253 0.29302126 -0.14597966 0.1288999
0.26887405 0.34409973 0.26035827 0.27031332 -0.09728837 0.66716886 -0.29583457 0.2832966
0.52548724 -0.25638247 -0.0030789708 0.48526594 -0.16764767 -0.11579323 -0.16223596 -0.061763376
-0.029755274 0.9057064 -0.067573205 0.5471298 0.74878436 0.6824198 -0.25497222 0.25509688
0.6097026 -0.46512362 -0.24763519 -0.030212492 0.81717694 0.55440253 -0.15119617 0.8553542
0.29042885 -0.40602976 -0.07910207 0.6525708 -0.40607744 -0.40605387 -0.12861992 0.61733973
-0.11583187 -0.06313578 0.63161427 -0.018466273 0.077421345 0.008654847 0.5732682 0.36711577
-0.053819954 -0.01778503 -0.27640548 -0.11440265 0.059141535 0.7246208 0.27496958 0.3805928
0.03431728 -0.3140886 0.4729433 0.59141076 -0.2427421 0.38341403 0.097882174 -0.38967547
0.5248843 0.15318687 -0.02795803 -0.3282937 -0.07047821 0.15284401 -0.22627811 -0.039211277
0.54778564 0.09070406 0.4625311 -0.082361124 0.47258458 0.38475263 0.5505118 -0.12675098
-0.08307754 0.27803275 -0.30238986 -0.09642861 0.21563727 0.08148765 0.40783477 0.4412971
0.39059672 0.30677664 -0.68036133 0.30262718 -0.2821273 0.5354603 -0.31565273 0.36194938
-0.50837153 -0.60223234 -0.40784314 -0.26464507 0.33387887 -0.543337 -0.48164266 0.41955835
0.66177773 -0.095096946 0.66858125 -0.10835921 -0.25975487 0.6049028 0.6343369 0.14106476
0.17934021 0.020260524 0.57934004 -0.29406404 0.1363075 0.29322043 0.17211224 0.492235
-0.15573135 -0.033445336 0.260539 -0.28156385 0.020346511 0.31982103 -0.47499698 0.9916241
-0.080331564 0.23749565 -0.2616268 -0.44672665 0.4760295 -0.19359532 0.48636007 0.30677634
-0.39058283 -0.11250062 0.024746373 0.2455309 -0.8246794 -0.15264699 0.16664347 0.41132888
-0.07252613 -0.26255322 0.36063796 0.21958256 0.18385628 0.18848042 -0.42577827 0.2514089
-0.41548812 0.054946452 0.2733758 -0.19703594 -0.027424498 0.47089893 -0.47075382 0.27744988
0.1815285 0.40922916 0.09958728 0.5472984 0.18060035 0.17373341 1.1349642 -0.4014389
0.28764617 -0.4970755 0.34508726 0.36832282 0.41087374 0.16399948 0.5581856 0.3154128
0.27374196 1.1677176 -0.19073825 0.33015865 -0.31710762 -0.4518086 0.35539806 0.38661456
0.1802932 -0.30125365 0.013893704 0.2625064 0.22910692 -0.016521944 0.43846926 -0.14993234

l1.bias f4 [8]
00000000: e187 503f 5aec cf3e f6e4 783f dcc4 763f
00000010: 76d8 ca3e 3406 8e3f 6da9 033f cbe9 143f
0.81457335 0.4061001 0.97224367 0.96394134 0.39618272 1.1095643 0.514304 0.5816924

l2.weight f4 [8, 8]
00000000: 7d56 043f 5c27 2abf 59f2 823e fe28 2a3e
00000010: 9c20 143f 34ed e63e b442 aabf b067 9d3f
00000020: cca6 a93f d447 4b3f ccdf ab3f ca57 a23f
00000030: 8354 933e 3f9e 19bf a838 aa3f 3214 e73e
00000040: 31f3 b3bd 3028 823f 034c efbe 15ae 3cbf
00000050: 49b8 aa3f a6af 2d3f 0ac2 4abf 9e54 a73f
00000060: bfbb 67bf 29d3 843f a82b 6ebf 1a45 913f
00000070: b254 bb3b 31d9 a33f 873f 3d3f 79fe c0bd
00000080: c304 7e3f 4f85 7e3f 852a 90bd 6a50 92bc
00000090: 86e0 7cbf 21a3 a2be 4d6a 56bf 14ab 703f
000000a0: 7d0e 1e3f 5509 5dbe f6c0 ab3f 43fe 6b3f
000000b0: b02a b7bf 4be4 833f d66c 56bf 6f07 debe
000000c0: 0672 6dbe c479 96bd fb09 aebe 00b8 81be
000000d0: 10be 2d3d b96d 35be e00e ad3d 00aa f63d
000000e0: 2af5 293f 5cc1 243f c56b 3dbd 4fcb bfbf
000000f0: a850 bdbf 3eb7 493f 53a1 bbbf 9a05 da3e
0.5169447 -0.6646631 0.25575522 0.166172 0.5786226 0.45102847 -1.3301606 1.2297268
1.3254027 0.79406476 1.3427672 1.2683041 0.28775415 -0.6000709 1.329854 0.45132595
-0.087866195 1.0168514 -0.4673768 -0.7370313 1.3337489 0.67846143 -0.7920233 1.3072698
-0.9052085 1.0376941 -0.93035364 1.1349213 0.0057168836 1.2800657 0.7392506 -0.09423537
0.99226016 0.9942216 -0.0703936 -0.01786061 -0.98780096 -0.31765082 -0.8375595 0.94011045
0.6174086 -0.21585591 1.3418262 0.9218485 -1.4309902 1.0304044 -0.8375982 -0.43365046
-0.23188028 -0.07347444 -0.3399199 -0.25335693 0.042417586 -0.17717637 0.08450103 0.12044144
0.66389716 0.64357543 -0.046245355 -1.498392 -1.4790239 0.7879523 -1.4658607 0.425824

l2.bias f4 [8]
00000000: 5f09 5c3f 658f b9be 9c33 913e bfb3 5f3a
00000010: c7c8 d33c bffa 6e3f aee0 87be 7671 163d
0.859518 -0.36242214 0.28359687 0.0008533559 0.025852574 0.9335136 -0.26538604 0.0367293

l3.weight f4 [9, 8]
00000000: 608f 9cbf 5c7d 0e3e e438 36be bac7 293f
00000010: 0fe9 21bf 09a1 cabf 7f3a a63e ca05 40bf
00000020: 888e 0f3e 987f 59bf b08e 2ebc fe8e bebf
00000030: e447 2d3f fc50 85be d6d6 073e 1184 263f
00000040: 49d0 e5bf a601 b23e edf3 e0bf f117 a83e
00000050: 71b0 a0bf 670c 9a3e 659f ad3e 4a40 82bf
00000060: 9297 163f db4c 17be 7fe7 9cbf b907 f9bf
00000070: 1260 32bd fef5 693f dfe7 8b3e 891d b3bf
00000080: 9162 5cbf bf99 5a3f e6aa 73bf a4fa 8bbf
00000090: 9d73 22bf 13c7 abbf f852 3b3d fc75 80bf
000000a0: a90d ddbd ff0a 203e bc85 8cbd 033b 0ebf
000000b0: 7971 723f d32c 98bf 66fc 7a3e 67d9 e4bf
000000c0: 7407 bebf 26dc a1bf f583 f13e 63bc 453e
000000d0: 313a 91bd 687e abbe 1832 133e b103 3c3f
000000e0: 3ea6 883f 1a2b 2cbf d2b6 563f ce8f 53bf
000000f0: 80d4 9abf 8f54 9ebf 6a8d 003e e7a9 a6bf
00000100: 82c2 f13d bd30 afbf 300b 45bf a2cd 033f
00000110: c755 6abf 8fbc f83e 50a6 113d 3716 7cbf
-1.2231255 0.13915008 -0.1779514 0.66320384 -0.63246244 -1.5830394 0.32466504 -0.75008833
0.14019215 -0.8496032 -0.010654137 -1.4887388 0.6768782 -0.2603835 0.13265547 0.6504527
-1.7954189 0.34766883 -1.757444 0.32830766 -1.2553846 0.30087587 0.3391067 -1.017587
0.5882503 -0.14775412 -1.2258147 -1.9455482 -0.04354865 0.9139098 0.2732534 -1.3993388
-0.860879 0.8539085 -0.95182645 -1.0935864 -0.6345766 -1.3420128 0.045733422 -1.0036006
-0.10793621 0.15629195 -0.06861445 -0.55558795 0.94704396 -1.1888679 0.24510345 -1.7878846
-1.4846025 -1.2645309 0.47170988 0.19310145 -0.07091177 -0.33494878 0.14374578 0.7344313
1.0675733 -0.6725327 0.8387271 -0.82641304 -1.20961 -1.2369555 0.12553945 -1.30206
0.118046775 -1.3686749 -0.76970196 0.51485646 -0.91537136 0.4858136 0.035559 -0.984714

l3.bias f4 [9]
00000000: 359a d7bd acaa 0fbd 4e8f dc3d 71d2 073f
00000010: 02fc 293e 6744 d4be c7ab 60be 1c34 a93e
00000020: 3c9d 78be
-0.105274595 -0.035074875 0.10769521 0.53055483 0.1660004 -0.41458437 -0.21940528 0.3304757
-0.2427873
